Epoch199.pth (torch, 577851 bytes, 14 tensors)

hist_mlp.0.weight f4 [128, 60]
00000000: 2709 983c f5cb df3c 9a26 183d d395 2c3c
00000010: a4d9 663c c57d 063c 307a 9ebd 9e56 74bd
00000020: 6156 59bd c40e 74bd 528c 2fbd 9ad5 3bbd
00000030: 18f4 64bd 58cb 34bd 1383 23bd 4214 50bd
00000040: d20e 37bd 1cc9 fbbc 916f 2abd 1688 0dbd
00000050: ee60 debc fee5 ecbc f23c c8bc 2099 c2bc
00000060: 6764 b9bc d271 9fbc cae2 86bc 21b1 aabc
00000070: 6a90 9bbc b27b 3cbb f3ad adbc f417 96bc
00000080: 8cfb 57bc 3116 a1bc 4aeb 8cbc 43ef 4dbc
00000090: 632a 8abc ea38 7dbc bfb2 28bc 5f02 77bc
000000a0: 9e0f 46bc 2ca8 35bc 5fbe 49bc 6995 35bc
000000b0: 6c03 1fbc 65db 19bc dc7a 2fbc 709e 14bc
000000c0: 2197 09bc 7c79 3fbc 6718 09bc 4357 07bc
000000d0: 1704 0ebc 6410 0fbc 044b 1cbc 00b8 63bc
000000e0: 636b 29bc 969c 5dbc d486 1abc 6db9 99bc
000000f0: 8e5a 013e 4074 c53d 3437 d3bd 95de 493d
00000100: 3a5e b83d de61 77bd 4677 e23b f28d 90bc
00000110: 7730 8dbd 46bc a23c e7dd a63d a555 6b3d
00000120: 97c9 503d 6ecd 4bbc b512 e7bc c942 2ebd
00000130: aa7f 82bb 2bda 49bd 13db 573c c67e 98bd
00000140: 0614 fabc 7009 d8bc aadf 8bbc a6c8 46bd
00000150: 8ee1 81bc ef7c 233d 6201 e0bc 395d babd
00000160: 6a6b c3bc e152 06bd 365a a6bc 0faf fbbb
00000170: 9bd9 953b ffec debc 52f7 d9bc d900 b23c
00000180: 5724 93bb 0302 553d 6a39 313c e1ef 9bbd
00000190: 293c 2d3d fb89 b4bc 66c0 aabb 157c 71bd
000001a0: d9b5 9abd 927b b0bd a27c 0fbd e66c f9bc
000001b0: 12cd 40bd 6e29 b23d f9f4 103d ada3 b0bb
000001c0: 9b15 0f3d 0246 823d e35a 38bd 417c a1bd
000001d0: a696 893d b5a7 a7bd 7f4a a9b7 a9cd 993d
000001e0: b5d2 9ebc f563 413d 62f7 f5bd 640f f9ba
000001f0: d369 ec3c 20e4 b5bd 5f52 36bc 2e57 6a3d
00000200: a4d7 9bbd fe55 923d 9aef 173d 0640 83bd
00000210: 760e 4fbd 72b4 2cbd 76d0 6cbd 189f 0f3d
00000220: de9a 8fbc f733 fcbd afc4 64bd 8dc7 5d3d
00000230: a644 8fbd d358 383d cb6d 703a 6b50 9ebd
00000240: 72b5 cb3c 8197 00bc f9b9 a1bc bd52 963c
00000250: a0f6 b2bc 573b cabd f815 1a3d ab9e fcbc
00000260: 0523 48bd 80e9 e4bc 4226 23bc 9c2a 1e3c
00000270: e174 043d d8bd 48bd df65 083d b812 a63d
00000280: 0209 2a3d b103 16bd 60ed 2f3d 72c9 4bbd
00000290: 82b3 cd3b 04c1 a63d 7258 8c3d 65c2 813c
000002a0: 5c9c 5a3d 8f09 e7bd 6370 41bd d357 8f3d
000002b0: 3f9d aebc c997 ab3d 059e 5b3c 5998 f8bd
000002c0: 1df0 713d 64f5 843d d3d6 c7bd 7064 9a3c
000002d0: aa96 1ebe 1e8a bebd 478f 303e f6f9 94bd
000002e0: 4ad3 713c c768 87bc 885d 3fbc 17d2 debc
000002f0: 3962 80bd 620f 55bd f814 2dbd c856 133c
00000300: a4b8 8fbc e884 89bc 9f21 113e 2090 f3bd
00000310: 4276 cbbd 55fc 23bd bee2 1bbd 1be5 e1bb
00000320: 186c 253d 2dff 10bd fdee 31bd 5ff0 80bc
00000330: 5b60 a33c a260 94bc b568 5d3d b5d4 81bd
00000340: 07e7 8b3c a256 b43d 85ed 813d 00ed 83bd
00000350: 35f9 c43b 82e6 62bc 70e1 c3bd f6ea b13c
00000360: a5b8 aebd 6eca 203d 9dd4 643c 4963 53bc
00000370: 6c1a 1dbd fb53 e8bb c163 3d3d 20b2 90bc
00000380: 6d3b 46bd b9d3 48bb 3ec5 54bd 4e71 cd3d
00000390: 8d7d e83d 3d32 0d3c ffde 15bc cb94 423d
000003a0: e9e3 bd3c c6ba dcbd 901d d53d d701 c9bd
000003b0: e0f7 a7bd df92 d93d e8ee 50bd 7ded bfbd
000003c0: 3a7a b73c 2e19 a93c 3fab 8c3c d42d 033c
000003d0: 1107 873c d4ff 173d 6e84 0bbd 02c2 80bc
000003e0: d19d 83bb 86d8 dfbc 9b67 1bbc 5c96 ee3a
000003f0: b477 c2bc 9fc4 61bc 0af0 8fbb fb54 8ebc
0.018559052 0.027318934 0.03714619 0.010533768 0.0140899755 0.008208697 -0.07738149 -0.059652917
-0.053060893 -0.059584394 -0.04285843 -0.045858003 -0.05589685 -0.044139236 -0.039919924 -0.05080057
-0.044691868 -0.030735545 -0.041610304 -0.03455361 -0.027145829 -0.028918263 -0.024443123 -0.023754656
-0.022630883 -0.019463453 -0.016465563 -0.020836415 -0.01898976 -0.0028760252 -0.02120111 -0.018321969
-0.013182532 -0.019663902 -0.017202038 -0.0125692515 -0.016865915 -0.015455464 -0.010296523 -0.015076249
-0.012088684 -0.011087459 -0.012313454 -0.011082985 -0.009705406 -0.009390687 -0.010710444 -0.009070978
-0.008397848 -0.011686679 -0.008367634 -0.008260551 -0.008667967 -0.008731935 -0.0095393695 -0.0138988495
-0.010340544 -0.0135261025 -0.00943156 -0.018765176 0.126322 0.096413136 -0.103132635 0.049284536
0.09002347 -0.060396068 0.006911191 -0.01764581 -0.068940096 0.019865166 0.08147793 0.057454724
0.0509735 -0.012439115 -0.028207162 -0.04254416 -0.003982504 -0.049280327 0.01317479 -0.07446055
-0.030527126 -0.026371688 -0.017074425 -0.048531197 -0.015854623 0.039914068 -0.02734441 -0.09099812
-0.02385493 -0.032793883 -0.020306688 -0.0076807807 0.0045730597 -0.027212618 -0.02660719 0.02172892
-0.004490416 0.05200387 0.010816911 -0.07614113 0.0422937 -0.02203845 -0.005210924 -0.058956224
-0.07554216 -0.08617319 -0.03503097 -0.030447435 -0.04707057 0.08699308 0.035389874 -0.0053906054
0.034932714 0.06361009 -0.04500855 -0.07885028 0.06718187 -0.081862845 -2.018106e-05 0.0750993
-0.019387582 0.047214467 -0.12010075 -0.0019001779 0.028859055 -0.08881402 -0.011128037 0.057212047
-0.076094896 0.07145308 0.037093736 -0.06408696 -0.0505509 -0.042164274 -0.05781599 0.035063833
-0.017529901 -0.12314599 -0.055851635 0.054145385 -0.069955155 0.045006584 0.0009171634 -0.07730182
0.024866793 -0.007848621 -0.019741999 0.01835 -0.021846116 -0.098745994 0.037618607 -0.030837378
-0.048861522 -0.027943373 -0.009957852 0.009653714 0.032338027 -0.049009174 0.033300277 0.08109039
0.041512497 -0.036624614 0.042950988 -0.04975266 0.0062775025 0.081422836 0.06852807 0.015839765
0.053371772 -0.1128112 -0.04722632 0.06999173 -0.021315215 0.0837856 0.013404374 -0.12138433
0.05906688 0.06492117 -0.09757771 0.01884672 -0.15487161 -0.093036875 0.17242156 -0.07274239
0.014759848 -0.016529454 -0.011680014 -0.027199788 -0.062687345 -0.052016623 -0.042256325 0.008992858
-0.017544098 -0.016787007 0.14172982 -0.11892724 -0.09934665 -0.040035564 -0.038058035 -0.0068937666
0.04038629 -0.035399605 -0.043440808 -0.015739618 0.019943407 -0.018112484 0.054054935 -0.06339399
0.017077936 0.088055864 0.063441314 -0.064416885 0.006011153 -0.013848903 -0.09564483 0.021718483
-0.08531312 0.039255552 0.013966707 -0.012902089 -0.038355276 -0.0070900894 0.04623771 -0.017663062
-0.048396517 -0.0030643775 -0.051945917 0.10031377 0.11352072 0.008617935 -0.009147405 0.04750518
0.023179965 -0.10777812 0.10406029 -0.09814804 -0.08201575 0.106237166 -0.05100909 -0.09371469
0.02239715 0.02064189 0.0171715 0.008006532 0.016482862 0.03710921 -0.03406184 -0.01571751
-0.004016616 -0.027324926 -0.009485151 0.001820277 -0.02373872 -0.013779788 -0.0043926286 -0.017374506

hist_mlp.0.bias f4 [128]
00000000: 4d73 e7bc 7a97 f03c 077a 253d 2e9f 873d
00000010: 2be7 90bc 4622 a8bc 1fbc 7b3d 90be 0e3c
00000020: 643a a23d 9c76 883d 3a6e 74bc fa3c 473c
00000030: a54d 093c f08a 153d 4deb 95bc 6fea 2b3d
00000040: 4d71 7f3d 3ae7 c0bc 3935 7a3a 0e66 0abd
00000050: 8546 c33d 80e4 a53d 33bc 0bbc 4baf 5bbc
00000060: 320e 3abd 2772 283d 789f de3c 0c99 a53d
00000070: 31bb 94bc d3aa 4ebc 49e1 953c 5d25 99bc
00000080: e80f c43c 9eea 223b 1644 cf3d ea69 9d3b
00000090: 9568 8ebc aab0 0c3d bca2 113d 0fae 743d
000000a0: 5869 963d 91b9 8ebc d82b 76bc d0ff e33c
000000b0: bc08 35bb 2c9b 2d3d 059f 343c eca5 0d3a
000000c0: 5ea1 713d c8e3 9f3c e0c2 e5bb 7cae c93d
000000d0: 706f a3bc 8b2a 03bc c393 16bd ec3d 76bc
000000e0: 8b40 923d e30b 623d fc94 4bbc 2ef5 e33c
000000f0: 9846 f6bc af88 803c c11f fe3c 8396 493c
00000100: dcde b43d e44a 4c3d 5745 ba3c 7183 8bbc
00000110: 9571 9f3d 8416 3b3d aa73 103e 35c8 983d
00000120: a1a3 b83d 1e83 e8bb 8cfc 683d 38f7 c83d
00000130: 038a 70bc a5be 3a3d 27a2 693b 6fe0 69bc
00000140: 3c4a b43c d5c3 c13d 3056 b03d 38ba 893c
00000150: 1ce5 053d f150 303c 7111 a6bc fc62 8dbb
00000160: cc5e 053e b336 e73c 0ef2 c33d 9cae 1c3d
00000170: 972b d43d 3a85 7d3d 15bd 43bc 9ea6 fe3d
00000180: bc1f c33c 078c 68bc bfad 9f3b 3508 acbc
00000190: baac 80bb 2f21 6b3d a08a 09bb 33fa 3fbb
000001a0: 2399 903d 6d8c 133d 68da 853c cb82 b43d
000001b0: 7483 69bc 7988 853a ff7e 73bc 7e8e ab3d
000001c0: c5f9 fe3c 95ca 42bd 547a 983d 0a18 0b3d
000001d0: 0ec9 45bc 7993 25bc 4089 893c 2324 cb3c
000001e0: aeb5 68bc c13b 9f3c ce55 25bd 0f81 5bbd
000001f0: 9258 0dbd da79 a83c 80a8 55bd 2474 033e
-0.028253222 0.029369105 0.040399577 0.06622158 -0.017688354 -0.020524155 0.061458703 0.008712426
0.079212934 0.06663248 -0.014918858 0.012160534 0.008380328 0.036509454 -0.018300677 0.04197162
0.06236391 -0.023547757 0.0009544674 -0.033788733 0.09534935 0.081002235 -0.008528757 -0.013408492
-0.045423694 0.04112449 0.02717565 0.08085832 -0.018155666 -0.01261397 0.0182959 -0.018694574
0.023933366 0.002485908 0.10120408 0.0048038857 -0.017383853 0.034348167 0.035555586 0.059736308
0.073443115 -0.01742247 -0.015025102 0.027831942 -0.0027623614 0.04238431 0.011024241 0.00054034474
0.058991782 0.019517794 -0.0070117563 0.098477334 -0.019950598 -0.0080057485 -0.03676201 -0.015029412
0.07141217 0.055187117 -0.012425657 0.027826872 -0.030062959 0.015690176 0.031021 0.012303951
0.088315696 0.04987611 0.022738142 -0.01703045 0.07785336 0.04567577 0.14106622 0.074600615
0.09015585 -0.0070957085 0.056881472 0.09812778 -0.014681342 0.04559197 0.003564963 -0.014274701
0.022008054 0.0946118 0.08610189 0.016812429 0.0326892 0.010761485 -0.020271989 -0.0043147784
0.13024443 0.028224325 0.09567653 0.038252458 0.103598766 0.061894633 -0.011946936 0.124341235
0.023818843 -0.014193541 0.004873007 -0.021000007 -0.0039268406 0.057404693 -0.0020987168 -0.0029293417
0.070604585 0.036022592 0.016339496 0.08814009 -0.014252532 0.0010187767 -0.014861821 0.083767876
0.031124959 -0.04755648 0.07445207 0.033958472 -0.012071861 -0.010105961 0.016789079 0.024797505
-0.014203472 0.019437673 -0.040365033 -0.053589877 -0.034508295 0.020565916 -0.052162647 0.12837273

hist_mlp.2.weight f4 [256, 128]
00000000: a668 0b3b ae48 2e3c 4a39 093d 1a78 c2bc
00000010: c028 433a afb3 353d 957b e8bc 8af1 cfbc
00000020: 14b7 c63c 0953 b1bb f5a3 b5bc a84a 72bb
00000030: 820d 9fbd 5e97 ddbc 552c 073b da22 92bc
00000040: 19a2 d83c c93e ccbc 719e 953b 5e80 f3bc
00000050: c7bc b9bc 4ee4 fa3c 09bb 923c cef7 2a3d
00000060: 4125 b0bb c4c0 b6bc 167f f1bc 9f0f a3bc
00000070: 36cb 0c3b a748 e5bb 0597 2b3b 4b16 103b
00000080: d06e c4bb 6c36 92bc b2b4 223d 9212 65bc
00000090: 67c5 013b 877b 52bc abbf 1ebb 72a4 803d
000000a0: ab5f 56bc 0064 f93a 3a04 6c3c ab02 63bc
000000b0: 4946 e1bc ff30 a63a 0a8c 9d3d af62 f6bb
000000c0: 2aa1 993c 4153 cdbc 43b5 5bbc 34f8 8ebd
000000d0: a452 e3bb 19fa 6ebc 8fb0 19bc d208 ec3a
000000e0: 394c f33c 0a34 8f3c 9706 d7bb 8416 113d
000000f0: ff5e 8a3c 5408 09bc bb92 64bd dfaa 01bd
00000100: 5ec8 13bd 10e4 6c3d 59a7 3abd 5556 353d
00000110: c74b ee3a 4450 273d 35f7 f33b 9596 a9bc
00000120: 05d8 84bc 05ce 33bb 711b 0dbd bbdc 7bbd
00000130: f21f 6d3c 7373 39bc 9159 2bbd 21bd 523c
00000140: a191 bfbc 2ba9 30bd 624b 3f3d a673 bbbc
00000150: 7d14 01bc c2b0 213d 1e5c e03b 75c6 79bd
00000160: 80dd 08bb fde7 4dbc 1dbc 7cbd b7a9 4e3c
00000170: e1aa 333c a26b 223d 847d 5d3c ed38 55bd
00000180: cb96 333d b9c0 503c d088 1ebd 4f5a 013b
00000190: e8e8 273c 1101 773d 572e 1a3c aa4c 97bb
000001a0: 4da4 00bd cb9e 54bc 5ea1 c7bb 47bf bf3d
000001b0: c379 663c bbcf 2c3c 9990 6c3c e196 11bd
000001c0: 643c 12bc 5e47 a63c ba4d c33b 2235 98bd
000001d0: 4a3f ca3b 781d 39bc ee41 6bbd 66e2 14bd
000001e0: 05f7 223b fbf6 87bd 4745 43bc 1e01 673d
000001f0: 5627 fbbb c092 51bc 0265 7a3d 0d30 babd
00000200: eb08 f839 f6d2 933c 15cf 313c 7d2d b93d
00000210: 1706 923b 2703 c43c 9c78 8d3d f9f7 02bd
00000220: e92f d6bc c34b 82bd a545 e03b 87c9 b7bb
00000230: 25e9 873d 7e7e c73b 973c 6e39 f16c 583d
00000240: 79df cebc ccba 87bb ba50 ae3c 097d e23c
00000250: 869b 86bc be0b 6c3d 834d 8a3c 53da e93c
00000260: 0b07 91bc 3417 1b3c 3d66 933c 41ad 6c3d
00000270: 4263 94b8 5f92 5a3d 5833 583b 0312 f938
00000280: 2b00 cdbd 7e2b 693d 5015 d6bb 3fb2 e93c
00000290: 3fe2 9439 0326 c5bc bef6 35bc c45e c2bd
000002a0: 6d58 a83c bcda 3c3a 0700 853c 6fb8 863b
000002b0: 82c4 ab3d 3e3a e33c 47ab 863d d1b7 993b
000002c0: d799 b33d a791 4d3d 8280 afbc 0fd2 b53b
000002d0: c492 d63b d573 443d bd2a 0f3d 45b3 c039
000002e0: 55cb 2c3d e05b b83d d7e8 823c 34cb b83d
000002f0: 6172 8d3d 0194 9b3d 36f6 8dbd cd64 7e3d
00000300: b501 f0bc 85c4 8b3d 0c57 df3c 15bf 213b
00000310: f43a 88bc 14f6 053c ba70 003d 4800 1ebd
00000320: b3e5 d93c 27e9 c53c f3f1 b3bd 2e52 5d3d
00000330: 9a46 873c f328 b43c 15f1 0d3c 37ce 7d3c
00000340: bdaa 183d 0987 07bd 88b1 243d 69df 2dbc
00000350: f617 28bc 47bb 44bd 4b46 2f3c d3e9 303d
00000360: 2671 09bd d150 2cbd 98d9 39bd 8ae8 bbbd
00000370: 23c1 a23d 1c19 12bd c270 843c 9612 d53d
00000380: 97bf 27bc bd9e 813c 1597 293d 91fc bd39
00000390: dd1e 173c 638c 77bc d07d 3f3d b697 99bc
000003a0: 15ae 27bd aa33 613d b950 dd3c 3689 1e3d
000003b0: 50e0 7f3c 7689 043d e7b6 843c 5906 abbb
000003c0: 14b5 983d 28c1 bebc a5c5 23bd 4e78 ea3d
000003d0: e23f 14bc 4716 a6ba cdf5 243d e99f a93b
000003e0: 1ec6 4c3c 4a10 b93c 5459 473d 439b 47bd
000003f0: e6da ad3c 1e9c 1dbd b884 043c 0f9b c03d
0.0021272092 0.010637445 0.0335019 -0.02373891 0.0007444732 0.044360813 -0.028379241 -0.02538373
0.02425722 -0.00541151 -0.022172907 -0.0036970768 -0.07766248 -0.027049717 0.002062579 -0.017838884
0.026444482 -0.024932282 0.004566007 -0.029724296 -0.022673024 0.030626442 0.017911451 0.04174023
-0.0053755348 -0.022308715 -0.029479545 -0.01990491 0.0021483428 -0.006997186 0.0026182544 0.0021985944
-0.005994655 -0.017848216 0.039723106 -0.013981478 0.00198015 -0.012846834 -0.002422313 0.062813655
-0.013084332 0.0019026995 0.014405305 -0.013855617 -0.027499335 0.0012679397 0.07692726 -0.007519088
0.018753607 -0.025064113 -0.013409915 -0.06980935 -0.0069373418 -0.014585995 -0.009380474 0.0018008
0.029699432 0.017480869 -0.006562065 0.035421863 0.016891 -0.008363802 -0.055803996 -0.031657096
-0.036079757 0.057834685 -0.04556975 0.044271786 0.0018180542 0.04084803 0.007445241 -0.020701686
-0.016216287 -0.002743603 -0.03445 -0.0614898 0.014472948 -0.011319029 -0.041833464 0.012862475
-0.023384871 -0.04313008 0.04670275 -0.022882294 -0.00787842 0.03947521 0.0068469187 -0.06098028
-0.0020883977 -0.012567517 -0.061702836 0.012613705 0.010966034 0.039653428 0.013518695 -0.05205624
0.04384498 0.012741261 -0.038704693 0.0019737666 0.0102484 0.06030375 0.009410462 -0.0046172934
-0.03140669 -0.012977312 -0.0060922345 0.09362655 0.014067116 0.010547574 0.014438772 -0.03554428
-0.008925531 0.020297702 0.0059601935 -0.07432009 0.0061720954 -0.01129853 -0.057435922 -0.036348723
0.0024866473 -0.06638905 -0.0119183725 0.05639755 -0.0076646013 -0.012791336 0.061131485 -0.09091196
0.0004730889 0.01804493 0.010852595 0.09041879 0.0044562924 0.023927284 0.0690777 -0.031974766
-0.026145892 -0.06362107 0.00684424 -0.0056087407 0.06636266 0.006088077 0.0002272002 0.05283827
-0.025253044 -0.004142141 0.021278728 0.027647512 -0.016431581 0.057628386 0.016882664 0.028546488
-0.017703554 0.009465981 0.017993087 0.057782415 -7.075678e-05 0.053362247 0.0032989588 0.000118766
-0.10009798 0.056926243 -0.0065333024 0.028527377 0.00028397326 -0.024065977 -0.011106191 -0.09490731
0.020549977 0.0007204225 0.016235365 0.0041113417 0.0838709 0.027737733 0.06575637 0.004691102
0.08769577 0.050187733 -0.021423582 0.0055487226 0.0065482575 0.04796203 0.034952868 0.0003675466
0.0421861 0.09001899 0.015980167 0.09023133 0.06906582 0.07596589 -0.06931727 0.06210785
-0.029297689 0.068245925 0.027263187 0.0024680544 -0.016629674 0.008176345 0.031357504 -0.038574487
0.026598787 0.024159027 -0.087863825 0.05403345 0.016513158 0.021992182 0.0086634355 0.01549106
0.037272204 -0.033087764 0.04020837 -0.010612347 -0.010259619 -0.048030164 0.0106979115 0.043191742
-0.033555172 -0.04206926 -0.04537353 -0.09175213 0.07946994 -0.035668477 0.016167048 0.104039356
-0.01023855 0.015822763 0.04140385 0.00036237066 0.009223667 -0.015109154 0.046750844 -0.0187491
-0.040937502 0.05498091 0.02701603 0.038705073 0.015617445 0.032357655 0.016200496 -0.0052192626
0.07456413 -0.023285463 -0.03998341 0.114487275 -0.009048434 -0.0012671434 0.040273476 0.0051765335
0.012498407 0.022590775 0.048669174 -0.048732053 0.021222543 -0.038478963 0.008088283 0.09404575

hist_mlp.2.bias f4 [256]
00000000: b908 023c b184 003d d023 463d 5079 863d
00000010: afb9 df3c e39e 8f3c 6b8a 423d 4d0d 723c
00000020: 2195 033d 739f 7f3a 6e45 ff3c 291b e13c
00000030: 1c61 90bb 56b6 96bb a589 be3a c1df 6f3c
00000040: 6abb 133d c7e2 9e3d 169c 113d 6b42 3e3b
00000050: ba4f 18bb b94f 333d f68a 4a3d 20fb 4d3c
00000060: 48e3 023c 2af9 9c3b 38ec 86bb b5e9 923c
00000070: 7e9a 4b3d 8b56 853b 9913 323d 256f 933d
00000080: 90c5 9dba 9d1f c43c 844a 37bd 6c85 d4bb
00000090: 9d22 7bba fdb2 0e3d fd7b 263d 1b11 1c3c
000000a0: 58c9 bf3c baa2 a03d 63bc 353d 80d4 20bc
000000b0: 4a7b 3eb9 486b 1cbb da54 7f3d 061f 083c
000000c0: a11c 383d 3154 cf38 3bfa a93c d4f0 fcba
000000d0: 30cb 19bb 8fb2 f2bb 0ef3 ba3d 772f 3f3c
000000e0: 78a7 8d3d 914e e3bb b416 973d da99 b63c
000000f0: 440e 5c3d 048e 3c3d ed71 343d 1c5f 1a3c
00000100: 0c99 043a 283a daba 28db 23bb 99fa 93bc
00000110: 8b4f 4d3b 006c 353d 683f 923c ae8b 2f3d
00000120: d690 a63d 94f9 213d 43ae 17bb 0a6d dcba
00000130: 4f9a 9439 5259 e1bb 2a41 6d3c f951 713d
00000140: bfff 153c b89f 883d 7137 ad3d 22c5 583c
00000150: a175 9ebb c01c 2e3d 7a6e 5d3d 1f95 973a
00000160: 9663 1d3b b552 2e3c 92ec 463c 4a83 aa39
00000170: 2469 a03d 7538 4e3c 7ff4 dd3c d441 813b
00000180: 6a37 043a d6a0 e7ba ff00 c23d 1d34 bd3b
00000190: 7ba2 65bb 5682 313c 8a4e 6c3c 6857 053d
000001a0: 189e 253d 44b9 c9bb 250e 74ba d586 493a
000001b0: f4c8 fbbb 458e 8fbb 5cfe 5c3d 8e8c c03b
000001c0: 25c2 afba 1235 2e3d 55f1 7d3d 0c7c 873c
000001d0: c8d4 9b3d 6d4b 18bc 7149 173d 2533 ad3d
000001e0: 0dcb a43d 01c6 1d3c 0baa 603c 708b 743d
000001f0: 5b46 c63d 8e0a 313c 375a 9c3d e0af acbb
00000200: 3a20 2c3c cc29 b7ba 652c 8ebb 559e 1c3b
00000210: 47b6 613c 3f92 223d 5be2 673d 9320 ab3c
00000220: 37e6 a33d e5cc 823c ee99 213b 6e8a 8f3b
00000230: 8c7a 7f3d 07de cd3c 0d3c 033d 846b 4c3d
00000240: 0777 023d 97cd 6c3d 3a60 b1bc b729 c53b
00000250: 3e74 1bbc e048 7b3a cb39 a63c 4510 9c3d
00000260: 50d7 493d b2cb 083c 9c25 f43c 1300 15bb
00000270: 9a30 f93b 2b69 723d 4523 ad3c 8358 82bb
00000280: 0ebe 3e3c 5626 b9ba 464f 143c 4330 d63c
00000290: 851a ddbb 7629 663d cdee 4a3c 01a5 523d
000002a0: 98ad 8c3d 862a 143c 08bd 2abb 208a 5bba
000002b0: 9cc4 aa3d de50 c73a d008 8bbb b37b 053d
000002c0: e2fa 553d cef1 46bb f448 873d 9ef1 763d
000002d0: ae8f 62bb 8a84 a73b d43b f23b 4c77 be3b
000002e0: 4646 853d 7c7b 953d 187f 813d af57 e63c
000002f0: e76f 7a3d 3f1c 2c3b 4419 863c 82c7 2fba
00000300: f40a c73d 3772 423c 892d a23d cdf2 393d
00000310: cd27 f83c b3b7 26bb a761 92bb cc18 e83c
00000320: 0d38 40bc 6ad2 943c 88ba 7b3c e06e 823d
00000330: 0e17 843c 1e5b 103d 76b8 923c 8881 293d
00000340: f283 83bc 7bee 513d dbb4 0e3d a297 16bb
00000350: ca76 dbbc 2325 003d d3d3 1dbd 812a 74bb
00000360: 67d6 993c ae3a f13c 393a e0bb 2a60 193d
00000370: ef1f 813d 61b1 bb3c 816b f6bb 55ea 9a3d
00000380: afc3 c6ba fe18 273d 25e7 213d a86f dbbc
00000390: e6a8 723d 8c92 c43d bcff c43c 1ae2 9e3d
000003a0: e243 643d 8dff a43c 9585 89ba dd97 05bd
000003b0: 5dd0 a23c 80b9 00bd 4d14 d23c 4702 e83a
000003c0: 74f2 ffbb bd11 6a3b 3e4d 14bc 734f 323d
000003d0: 569f bf3b 2054 fe3c 9324 9d3d 64ae 23bb
000003e0: eef0 ef3c c2da 8cbb cddf 983d a6fb 7b3c
000003f0: c4ee 913c cbcf 823c b867 823d a258 333d
0.00793665 0.031376544 0.048373997 0.06566107 0.02731022 0.017531818 0.047495287 0.014773679
0.032124642 0.0009751238 0.031161036 0.027478771 -0.0044061076 -0.004599373 0.0014536871 0.014640749
0.036067404 0.07758098 0.035549246 0.0029031287 -0.002324088 0.0437772 0.04944893 0.01257208
0.007988758 0.004790445 -0.004117515 0.017933706 0.049707882 0.0040691546 0.04347572 0.071989335
-0.0012037028 0.023940856 -0.044748798 -0.0064856317 -0.0009580048 0.034838665 0.04064559 0.009525563
0.023411438 0.07843538 0.044369113 -0.009816289 -0.00018165741 -0.0023867656 0.06233678 0.008308178
0.044949178 9.886211e-05 0.020749202 -0.0019297847 -0.0023467056 -0.0074065397 0.0912839 0.011669031
0.06916708 -0.006936856 0.07377377 0.022290159 0.053724542 0.046033874 0.04405396 0.00942209
0.0005058206 -0.0016649412 -0.0025002453 -0.01806383 0.003132793 0.04429245 0.0178525 0.04285782
0.08133094 0.039544657 -0.002314464 -0.0016817164 0.0002834373 -0.006877103 0.014480868 0.058916066
0.009155213 0.06671089 0.0845784 0.013230594 -0.0048358 0.042507887 0.054060437 0.0011564827
0.0024015657 0.010639836 0.012141364 0.00032522745 0.07832554 0.012586703 0.027094124 0.003944615
0.0005043658 -0.0017671834 0.09472846 0.0057740347 -0.0035039473 0.010834297 0.014423022 0.03255406
0.040433973 -0.0061561186 -0.0009309969 0.0007687633 -0.0076838676 -0.0043809735 0.053953514 0.0058761304
-0.00134093 0.04253108 0.06199773 0.016538642 0.07608944 -0.009295327 0.036935274 0.08457021
0.08046541 0.009629727 0.013712416 0.05970329 0.09681388 0.010805739 0.076343946 -0.0052699894
0.01050573 -0.0013974248 -0.0043387883 0.0023898084 0.013776368 0.039690252 0.056612354 0.020889556
0.08002894 0.015966842 0.00246584 0.004380516 0.06237273 0.025130285 0.03203969 0.049907222
0.031851795 0.057813253 -0.02165233 0.0060169357 -0.0094881635 0.00095857494 0.02029123 0.07620291
0.049277604 0.008349346 0.02980309 -0.002273564 0.0076046707 0.059182327 0.021134982 -0.0039778366
0.011641992 -0.0014125805 0.009052103 0.02614606 -0.006747546 0.056191884 0.012386036 0.05142689
0.06869048 0.0090433415 -0.0026052613 -0.0008374769 0.083382815 0.0015206595 -0.004242994 0.032588672
0.052241214 -0.003035653 0.066057116 0.060289018 -0.0034570503 0.0051122354 0.007392386 0.005812561
0.06507544 0.072989434 0.06323069 0.028117983 0.061141875 0.0026261953 0.01636947 -0.0006705449
0.09718886 0.011868051 0.079188414 0.04539757 0.030292416 -0.0025439083 -0.0044672075 0.028332137
-0.011732114 0.01816674 0.015364297 0.06368804 0.016124275 0.035243146 0.017910223 0.041383296
-0.016054127 0.051252823 0.034840446 -0.0022978564 -0.026790041 0.031285416 -0.03853209 -0.003725678
0.018778993 0.029446926 -0.006842878 0.037445225 0.06304919 0.02291173 -0.0075201397 0.075642265
-0.001516452 0.04079532 0.039527077 -0.02678664 0.059243105 0.09598264 0.024047725 0.07757969
0.0557288 0.020141387 -0.0010492081 -0.03261553 0.019874746 -0.031426907 0.025644446 0.0017700874
-0.007810885 0.003571614 -0.009051619 0.0435328 0.0058478517 0.031045973 0.076729916 -0.002497577
0.029289689 -0.004298539 0.074645616 0.015379822 0.017814048 0.015968224 0.06367439 0.0437857

hist_mlp.4.weight f4 [16, 256]
00000000: 5763 c2bc b0ba e0bb ac49 123d c907 1ebc
00000010: 72ce 373b a4fd 763c abef 1b3c 000c 953d
00000020: 58b6 803d 0033 963d a6c4 963d 9ce9 fdba
00000030: 776d f839 0c86 8abc 3d12 4a3b 0566 133a
00000040: 9e9f 74bd 9f99 60bc 676d 883d 8f2e ec38
00000050: 604a 293c 6c40 87bd c075 51bc bb74 083d
00000060: d5b6 b73d 2744 b1bb 3064 81bb 8459 323c
00000070: 2b9e 55bc c8d3 71bc c41c b93d a988 f73c
00000080: a4cd 11bb 0a9b 573d 0262 de3d a645 28bc
00000090: 41fd 033b 9277 2a3c 66b0 813c abfe d43d
000000a0: 83f5 35bb 81df f03c d15c 29bd fdf6 6abb
000000b0: 3630 27bb 0421 df3b 2ab6 09bd 6f4d 803c
000000c0: fe75 babb 21e2 f03a ad24 963c f7bd f9bb
000000d0: bc84 43ba 0562 f83b 199b 5f3d ae2e e8bc
000000e0: 2490 df3c b9b3 6e3d 785a 9e3d 82dd 863c
000000f0: 546d 87bd 024a 123d 8609 803d b09b 4abb
00000100: 472f 4dbc 9449 063d 88a8 6a3a 0175 8d3d
00000110: d816 7f3c 4519 a4bc 1b99 a73c 4fe2 18bd
00000120: 8a21 513d 89e7 c7bb 8e22 293b 11e1 b5bc
00000130: c687 493b 5f91 2b3d a98f b8b9 e9c4 6f3d
00000140: 8428 393c edae ce3d 8c46 8b3d 4c44 d6bd
00000150: 37b9 e63c a481 663d 3ef2 e1bc abee 64bc
00000160: 8922 78bc 1d0b 3e3d 4d0f d1bc 99c8 c63c
00000170: 888f 7fbc f45b deba 4716 dfbb 8ba7 e43c
00000180: dc3d 9f3d dd40 263c e1fe 913d 2e22 07bd
00000190: ea4d 573a 6686 10bd 7f74 25bd ee83 0abd
000001a0: 3127 873a e915 ae3a 5042 013c 706b 6fbc
000001b0: a342 243a 2adf 03bb cf91 2fbc 4c35 cebb
000001c0: 4e5a f7bb d52a 413c 7ed6 8a3c 4baa f13c
000001d0: 9470 983c 0bfb 87bb 0b47 963d 2d23 423d
000001e0: 3317 0dbd 022a 803a 0f80 6b3c cbda 86bd
000001f0: 4b9a 853d 4882 d1bb 92ed 493d 74ae 7cbb
00000200: de7e d73c 1712 6d3c ce7e 763c 9395 a0bb
00000210: 9f08 95bb fd4c 8f3c f586 8c3d da75 93bd
00000220: 7810 6f3c b3dd a13c bfe5 9fbc 93be 763c
00000230: 98a2 2c3b 661f f6bb a815 ab3c 5dea a63c
00000240: ef1b 583d 987b 913d 5761 86bc 4394 e83c
00000250: bb21 853b 9d30 bdbb db97 2e3d d4a8 4b3d
00000260: 4581 583c 1375 383c 5163 c3bb f013 d4bb
00000270: 9802 95bc 6239 08bd f0c6 893a 64e4 d43a
00000280: 7229 ceba 35a9 783d b09e 15bd ca17 503c
00000290: 84a4 91bb 572f 7c3d 53d1 993d f7fd 16bc
000002a0: dc09 76bc ba0e acba 69c1 983b 7ffa 57bc
000002b0: d927 973c 5269 2238 50be 0dbb 4a7c 433d
000002c0: 2096 0f3d 67ff 2c3d 52b4 043d 2bf1 a5bb
000002d0: ae7d f43a 5696 843c 8acc f4bb 9d37 353d
000002e0: da82 223d 0d76 69bc 2aeb 4f3d 157c 1b3d
000002f0: 2fc0 10bd 7758 043b 191f 2fbc c2be b13c
00000300: c845 893d 3f7f 5abc 2ab3 083d 070d 6d3d
00000310: 4cbc 31bd 1257 56bc b5c8 673c 3193 b6bc
00000320: 1160 62b9 7f9d f23c aed3 e03d 625b 6cbd
00000330: c8e0 b33c aa47 723b 5a59 4c3d af40 afbb
00000340: 9093 c5bb fc06 1f3d b93d a4bc 2c81 f1ba
00000350: b8a3 683d 33bb 993d ca9a f63c 64b6 b63c
00000360: e5f5 d2bb 07e5 3fbb 7ee2 7abb bac8 ed3a
00000370: 56ee 503d 38bf 85bb dd21 803b f187 f5bc
00000380: fe46 1c3a 1753 90bc 6e86 84bc 89ae 7fbb
00000390: e6f5 933c 4a90 debc 9248 693d a2ec 3a3c
000003a0: 6f85 2ebd 941b 8bbb 9369 9a3b fa07 923d
000003b0: cf51 7dbb 0ea8 24bb e1ea 903d ba56 383c
000003c0: c906 c83c 681e 783c 3c0f a73b 103e 5cbc
000003d0: 485a af3c 63b2 b23c a0f2 3e3d af25 7337
000003e0: 79e6 21bc 0f54 b93a 493c e23c 256a 50bb
000003f0: 410f a9bc 67ca 5dbc 903d bd3c 0820 703d
-0.02372901 -0.0068581924 0.03571479 -0.009645411 0.0028046635 0.015075121 0.0095175905 0.072776794
0.06284779 0.07333946 0.073617265 -0.0019371989 0.00047383804 -0.016909622 0.0030833625 0.0005622807
-0.059722535 -0.013708501 0.06661492 0.00011262029 0.010332674 -0.06604084 -0.012784421 0.033314448
0.08970419 -0.0054097357 -0.003948711 0.0108856 -0.013038198 -0.014759965 0.0903869 0.030216532
-0.0022247816 0.05263809 0.10858537 -0.010270512 0.0020139965 0.010404484 0.015831184 0.104001366
-0.0027764745 0.02940345 -0.041348282 -0.0035852783 -0.0025510914 0.0068093557 -0.03362099 0.015661923
-0.0056903353 0.0018377939 0.018328035 -0.0076215225 -0.00074584386 0.007580044 0.054591272 -0.028342571
0.027290411 0.058276866 0.07732099 0.016463045 -0.066126496 0.03571511 0.062518165 -0.003091555
-0.012523479 0.032785013 0.0008951505 0.06907082 0.015569411 -0.02003158 0.020458749 -0.0373252
0.051057376 -0.006100599 0.002580795 -0.022202047 0.0030751093 0.041886684 -0.0003520225 0.058537398
0.011301164 0.10091958 0.06800565 -0.10462245 0.02816449 0.05627598 -0.02758133 -0.0139729185
-0.015144953 0.046397317 -0.025519991 0.024265574 -0.015598185 -0.001696466 -0.0068080756 0.027911922
0.077754706 0.010147301 0.071286924 -0.03299158 0.0008213209 -0.035284422 -0.040394302 -0.033817224
0.0010311363 0.0013281676 0.007889345 -0.014613017 0.0006266033 -0.002012203 -0.010715916 -0.0062929746
-0.007548607 0.011789997 0.016947981 0.029500147 0.018608369 -0.0041497997 0.07337769 0.047396827
-0.034445953 0.0009778144 0.014373793 -0.065847 0.0652357 -0.0063937046 0.04929883 -0.003855613
0.026305612 0.014469645 0.015044881 -0.004900643 -0.004548147 0.017492766 0.068616785 -0.07200213
0.014591329 0.019759035 -0.019518731 0.015060085 0.002634203 -0.007511067 0.02088435 0.020375425
0.052761015 0.07103652 -0.016403837 0.02839101 0.004062859 -0.0057736174 0.04262529 0.049721554
0.013214414 0.011258381 -0.005962767 -0.0064721033 -0.018189713 -0.03325785 0.0010511559 0.0016242382
-0.0015728904 0.060708243 -0.03652829 0.012700984 -0.0044446606 0.061568584 0.075106286 -0.009215823
-0.015016999 -0.0013126947 0.004661728 -0.0131822815 0.018451618 3.8721897e-05 -0.0021628328 0.047725953
0.03505528 0.04223576 0.03239853 -0.00506415 0.0018653178 0.016184967 -0.007470672 0.04424249
0.03967557 -0.014249337 0.05076138 0.03796013 -0.03533953 0.002019433 -0.010688567 0.021697406
0.06702763 -0.013336002 0.03337399 0.057873752 -0.043392465 -0.013082283 0.014146973 -0.022286983
-0.00021588827 0.029616116 0.10977875 -0.057704337 0.02195777 0.0036968985 0.0498899 -0.005348287
-0.0060295537 0.03882502 -0.020048963 -0.0018425337 0.05679676 0.075064085 0.030103106 0.022303768
-0.0064380043 -0.0029280798 -0.0038281973 0.0018141486 0.051008545 -0.004081633 0.003910287 -0.029972048
0.00059615064 -0.017617745 -0.016177382 -0.0039013943 0.01806159 -0.027168412 0.056953974 0.011408957
-0.04260772 -0.004245231 0.0047122925 0.07130428 -0.0038653498 -0.0025124582 0.070760496 0.011251146
0.024417298 0.015143968 0.0050982516 -0.013442531 0.021405354 0.021813577 0.046618104 1.4492703e-05
-0.009881609 0.0014139431 0.027616637 -0.0031801548 -0.020637156 -0.013537026 0.023100644 0.058624297

hist_mlp.4.bias f4 [16]
00000000: 5b50 b23d dfbc 873b ade4 f13c 98ab 153d
00000010: 5fcf 953c 9c8a 563d 6c39 2c3d a210 2b3d
00000020: d546 5c3c 1a96 46bc f508 303d 8728 4f3d
00000030: 0da1 e13c 33fc 503d 59ba c53c 5337 7a3c
0.08706733 0.0041423882 0.029527986 0.036540598 0.018287359 0.052378282 0.04204695 0.04176391
0.013444622 -0.012120748 0.042977292 0.05057576 0.027542615 0.051021766 0.024136709 0.015271979

hist_mlp.6.weight f4 [5168, 16]
00000000: 7912 4abc b566 a3bc 13a7 11bd aa81 e7b9
00000010: 8226 ccbb 43ea a73a 1388 15bb 81b9 cebc
00000020: a1a3 3abc 052d 983c 2d2c e2ba 05b2 b23b
00000030: 56fa b03b 7b28 88bb 565e d7bc b62f 053b
00000040: ebda 3abc bebd 7fbc 8b69 e4bc 4cba 60ba
00000050: 8a2a 6cbb ccea 683b 09da 20bb 874a a5bc
00000060: 2a39 e1bb 5ed5 643c 5cdb ceba 0e12 ae3b
00000070: 62da a63b 1889 92bb a4b2 98bc 77c1 c73a
00000080: 9e2e 37bc 812d 5cbc c0b2 cbbc 2454 8239
00000090: 042e 5dbb de91 fb3a 0d84 61bb 304a 97bc
000000a0: 0590 f7bb b71d 133c ba29 7dbb 0e28 9e3b
000000b0: 4f8f 613b b5c4 59bb cb25 83bc 9f9e d039
000000c0: d5c8 3dbc 2191 95bc 4d02 09bd e5fe 90ba
000000d0: 258e a2bb b101 d73b 0fa4 e5ba 4fe9 c6bc
000000e0: 85c6 a4bb 75a6 a03c ef1e bbba 475e ba3b
000000f0: fdfd be3b fd1b 80bb 5b96 cbbc f09a 013b
00000100: 6faf 3ebc 2a76 73bc 2f87 ddbc 1018 e2ba
00000110: 122e 21bb fed4 0b3c f412 1bbb e9fa a4bc
00000120: f3f5 b0b9 585b 643c cdbf c0ba 112b b63b
00000130: cc83 b43b cf2f 91bb 7946 92bc 630b c53a
00000140: 0b03 38bc 6ea4 4dbc 6401 c0bc c0c8 43ba
00000150: 9873 13bb fd92 ee3b 3487 5ebb 519b 93bc
00000160: 4a18 2aba d7a0 123c 1ad8 6ebb cf2c a63b
00000170: 3af8 7c3b a7d8 60bb ff31 6fbc dcbf aa39
00000180: 8b6d 27bc 8855 92bc 424f 07bd ac23 8eb8
00000190: e257 afbb 6b28 fa3b 670b deba e1d3 c3bc
000001a0: ac9b 16bb 6571 a83c b930 0fbb 6072 c13b
000001b0: 5312 af3b 1e8e 22bb 4354 d5bc 30d6 eb3a
000001c0: 1754 3bbc 55be 87bc 3c21 f3bc 61ff 95ba
000001d0: 37a2 4ebb 4b2b 263c 2e5f 37bb e037 b4bc
000001e0: a84f 213b 1416 6a3c 7b59 24bb fc1c be3b
000001f0: ab08 a63b 577e 56bb 0ae0 adbc 961d 933a
00000200: 6bfe 30bc 9442 62bc 6d52 d0bc 1a7a 4039
00000210: f492 39bb 5684 0a3c 7261 6fbb 55dc 9dbc
00000220: 0f56 113b 813b 213c 6763 8fbb c902 ae3b
00000230: aae5 663b 96f6 09bb f461 8ebc 1527 b239
00000240: 7971 b6b8 21f1 5bb9 de54 92b9 86c4 25bb
00000250: 9800 0100 b947 bbb8 568b f1b9 f704 98b9
00000260: 183c 91b9 5401 46bb 7de4 46ba 8c50 8e2c
00000270: 0676 c9b8 1777 baba 831d aeb8 a29a 3dbb
00000280: 13b9 a93a 9ab5 59b8 d6b9 c639 aa8d b2ba
00000290: 4b2e 0100 c8f8 f037 19cc 0db9 d9e4 c039
000002a0: 8dce 0ab9 0fc5 1bbb 4e12 efb9 fcdb b42c
000002b0: 1923 b9b8 299f 91ba 2400 2db8 774d 12bb
000002c0: 9f80 2e3a 018c c3b8 ce02 3439 1027 40bb
000002d0: 7711 0080 969f cbb7 8a41 bfb9 1b5f a138
000002e0: 0e07 75b9 651f 3cbb 0307 7eba cd4b 5e2c
000002f0: 1d9c eab8 1dbf b7ba 6b9e 6fb8 855b 70bb
00000300: d350 673a 6076 feb8 46f3 1438 bb93 21bb
00000310: a203 0100 78f0 82b8 e220 80b9 c670 0cb7
00000320: 9f8f 65b9 dd1f 29bb 98e1 3eba 6a94 992c
00000330: 21cc 94b8 1bf3 b3ba 08ed 90b8 6308 41bb
00000340: a18b 163b 33de a138 5897 4e3a 2b12 95ba
00000350: 0ae9 0000 db2a eb38 4a38 0539 740b 403a
00000360: ec02 3237 f07c edba 58df c6b9 6d87 c32c
00000370: e843 69b8 cc25 83ba d914 69b7 7fdd 0ebb
00000380: 1e43 f33a 09df 4d38 761b 313a d45e 31bb
00000390: 2d27 0180 9111 3438 d2f3 ddb8 612e 0d3a
000003a0: 59c4 ddb8 9e25 19bb 8b42 63ba aaf8 6e2c
000003b0: fd93 b3b8 a974 aaba e4dc cbb7 230b 6ebb
000003c0: 25dc 0639 68e5 1ab9 a76d 1cb8 2cbf 87bb
000003d0: d603 0080 9802 6cb8 c282 edb9 87cf 57b9
000003e0: 7f22 4db9 fbff 4abb e760 8fba e71e 832c
000003f0: fb1d deb8 d202 ecba b445 86b8 097a 8ebb
-0.012333506 -0.019946435 -0.035559725 -0.0004415636 -0.0062301764 0.0012810904 -0.0022816702 -0.02523494
-0.011391551 0.018576154 -0.0017255597 0.0054533505 0.005400936 -0.0041552163 -0.0262901 0.0020322627
-0.011404733 -0.015609203 -0.027882358 -0.0008572682 -0.0036036097 0.003554034 -0.0024544022 -0.020177139
-0.0068732696 0.013966886 -0.0015781927 0.005312211 0.005091951 -0.0044719093 -0.01863987 0.0015240152
-0.011180548 -0.013438583 -0.024865508 0.00024858222 -0.0033749351 0.0019193252 -0.0034410984 -0.018467993
-0.0075550103 0.008979253 -0.0038629607 0.0048265522 0.0034417694 -0.0033228819 -0.016009232 0.00039791033
-0.011583527 -0.01825768 -0.03344946 -0.0011062293 -0.0049607926 0.006561481 -0.0017520207 -0.024281172
-0.005028548 0.019610623 -0.0014276187 0.0056875083 0.0058286176 -0.0039095865 -0.024851969 0.0019776188
-0.011638506 -0.0148597155 -0.027042 -0.0017249603 -0.002459411 0.008534668 -0.002366242 -0.020139175
-0.00033752582 0.013937794 -0.0014705599 0.005559333 0.0055088755 -0.004430748 -0.01785587 0.0015033301
-0.011231194 -0.01255141 -0.023438163 -0.0007468574 -0.002249932 0.007280706 -0.00339551 -0.018018397
-0.00064886047 0.00894948 -0.0036444725 0.0050712596 0.0038600103 -0.0034308822 -0.014599322 0.00032567873
-0.010218988 -0.01786305 -0.03303457 -6.777732e-05 -0.0053510526 0.0076342127 -0.0016940654 -0.023904743
-0.0022980971 0.020561883 -0.002184911 0.005903527 0.0053427606 -0.0024803947 -0.026041156 0.001799291
-0.011433623 -0.01657025 -0.029678933 -0.0011443907 -0.0031529793 0.010142158 -0.0027980315 -0.0219993
0.002461413 0.01428749 -0.0025077749 0.005801795 0.0050669513 -0.0032729113 -0.021224994 0.0011224027
-0.0108028455 -0.013809819 -0.025429929 0.00018356033 -0.002831635 0.008454403 -0.0036526588 -0.019270102
0.002217654 0.009840847 -0.0043758634 0.0053103906 0.0035232105 -0.0021051518 -0.017380692 0.00033979924
-8.699572e-05 -0.00020975295 -0.0002791052 -0.002529414 9.2048e-41 -8.930214e-05 -0.00046070915 -0.00028995398
-0.00027701329 -0.0030213194 -0.0007587148 4.0448252e-12 -9.6064105e-05 -0.0014226165 -8.3024635e-05 -0.002893128
0.0012948833 -5.190596e-05 0.00037903961 -0.0013622541 1.08442e-40 2.8726077e-05 -0.0001352284 0.00036791599
-0.00013237652 -0.002376858 -0.0004559927 5.140331e-12 -8.828025e-05 -0.0011110055 -4.1246545e-05 -0.0022324005
0.0006656739 -9.324402e-05 0.00017167183 -0.0029320158 -6.265e-42 -2.4273799e-05 -0.0003647919 7.694793e-05
-0.00023367649 -0.0028705236 -0.0009690376 3.1590175e-12 -0.00011187068 -0.0014018748 -5.712958e-05 -0.0036675644
0.00088239944 -0.00012133713 3.5512516e-05 -0.0024654705 9.3139e-41 -6.243674e-05 -0.00024438562 -8.370907e-06
-0.00021892645 -0.0025806346 -0.0007281541 4.364999e-12 -7.095212e-05 -0.0013729067 -6.9106056e-05 -0.0029454462
0.002297141 7.718466e-05 0.00078808283 -0.0011373212 8.3599e-41 0.00011213656 0.00012704838 0.00073259254
1.0610307e-05 -0.0018118899 -0.00037931907 5.5572686e-12 -5.561477e-05 -0.0010005771 -1.3892736e-05 -0.0021799502
0.0018559431 4.9083526e-05 0.0006756106 -0.0027064579 -1.05889e-40 4.2931704e-05 -0.00010583516 0.0005385634
-0.00010574674 -0.002336837 -0.00086692785 3.395987e-12 -8.56295e-05 -0.0013004738 -2.4302346e-05 -0.0036322556
0.00012861246 -0.00014772045 -3.729542e-05 -0.0041426625 -1.376e-42 -5.62692e-05 -0.00045301585 -0.00020581308
-0.00019563174 -0.003097533 -0.0010938913 3.726675e-12 -0.00010591369 -0.0018006212 -6.402601e-05 -0.004348044

hist_mlp.6.bias f4 [5168]
00000000: f07a 44bc b754 5ebc c88d 7abc de8f 41bc
00000010: dbe6 7fbc 3688 79bc 4565 2ebc fad9 76bc
00000020: 50fe 72bc f503 3abb aa14 4e3a aa29 10bb
00000030: 8c61 a5ba c319 103b b740 c738 c4b4 95bb
00000040: 70e1 64ba 5626 15bb 5d9f 823d 014d debd
00000050: c626 263e 4bc3 dbbd 6d3a 533e 1163 01ba
00000060: 8d4c 253e 3a28 1bbe 81f9 e7bd 707d 7abd
00000070: 169d d53d 1dd1 5abe 63e8 17be a57d 8abd
00000080: 1d76 183e efdc 403e dad1 d0bc ab5e 27bd
00000090: 00b4 80bb 5dbb 09ba 2a52 9bbb a59b 6cbb
000000a0: cbe1 8c39 c777 66bb aae0 08bc 486f 8cbb
000000b0: 0ca1 f7bb d8d3 013e 0b7c c83c 59e4 e03d
000000c0: 8ccc d13d e378 323c a502 823d 7f36 083e
000000d0: 1fd0 dc3c bb44 063e a43b 403e caf1 9a3b
000000e0: 55e0 583e d1ac 373e 49a3 51be a8af 353e
000000f0: cb58 083e 36d2 c6bd e7aa 8cbd 8fc2 45bb
00000100: 9097 28bb 6514 8abb a28f bfba b3cf 92ba
00000110: 6356 2cbb 514b b6ba 5d13 b1ba d763 3abb
00000120: 030f 093c d49a 6cbb ed96 9dbc 7bef f73b
00000130: 66df 97bb d0ed 99bc 37ea 493b a1fc 17bc
00000140: 66dd b7bc c927 d13d 3fe1 1c3b 19f6 50be
00000150: 01a7 713e 1ace 4dbe 53fb 263e 7f70 f1bd
00000160: da82 37bd e689 803e 5f1e e63c 39d8 0fbe
00000170: 68dc 263e 9fe6 3c3d bd03 023e 46b7 c7bd
00000180: be96 09be 827d 8b3d 363a 153e ed0f b0bc
00000190: 3813 25bd 787d 4bbd 0d24 833b 3b71 b3bc
000001a0: 5b48 6dbd 0555 51bb c07c cbbc be43 2cbd
000001b0: 4718 183e 5d82 2fbe a951 013e de49 2a3e
000001c0: 8acc cf3d 6334 6e3e 6ef7 293e 4e87 983d
000001d0: 734f 823e 6b93 5a3d c12d fe3d c0dd 2e3e
000001e0: 0752 e3bd 1a1c 1ebe 4b1d 2f3e 07d4 843d
000001f0: 196e 7ebc 2c0f 093e dae1 0080 f218 0000
00000200: 5509 0180 64d2 0080 5099 0080 e3f4 0000
00000210: 2cef 0000 e208 0180 4802 0000 aecf a1bc
00000220: 53bf 8bbd dd28 35bd 028b c23d 1525 a0bc
00000230: b17e 053e 5139 cf3c dda1 c23c 1ad4 9e3b
00000240: 1b3c 823a b16d 92bd 8663 243d 50db a13d
00000250: f4ce 3e3d b508 9f3d b207 16be 3cc8 933d
00000260: ef0e 0ebd 95f2 123d d587 4b3d 8f9d aebc
00000270: dc8c a53c 1a23 1d3e ab00 d53c b743 5dbd
00000280: e9aa febd 832c e33d 114f 33be 096c 9f3c
00000290: 324c 0f3d 8ab3 bebd f4ae 3fbe 9b9a 2ebe
000002a0: 6473 a03d 6a16 183e 03a9 3a3d e316 9fbb
000002b0: 7d3f 00bc 12ce 8cbb 93c3 ecba e921 e9bb
000002c0: 9898 49bb e083 dd3a 503a 88bb 5f4a a838
000002d0: cc06 02bd ee98 4fbe 5e19 503e 61b6 a1bd
000002e0: 8afd e63d e9de 513e 3d27 703e eb25 7bbc
000002f0: a01d e53c b788 72bc 0b8c 033e bd63 c83d
00000300: 5e7f 0dbc e6bf 1dbd 2468 26bd 5259 aabd
00000310: c979 8a3c 8e1a 173d 9e8d 34be df34 36be
00000320: 7c5f 03bd 684c e43d 3ee2 463e 14ff 5d3e
00000330: 879e 803c 624b 26be 2cae 3bbd 3aa8 89bc
00000340: f253 9c3b 70aa 3d3c 0ef3 80bc 39ad 37bc
00000350: a4aa 5a3c febe 33bc 1d90 a23b c8ab 8e3c
00000360: 6546 fc3c c37f aa3c e7ff 293d 756e e43c
00000370: 90f8 8d3c 2824 153d f75d 4e3d bbe4 0f3d
00000380: 0e21 773d 3f7e 67bd b421 603b dce9 153c
00000390: 04de 3ebc 9c94 a0bd 1e80 1a3d ec28 863d
000003a0: 05bf 683d 66cb db3c 8c90 f73d c226 42bd
000003b0: 6659 bb3d 2032 57bd d046 9b3d d4af 39be
000003c0: 7622 1b3e 3378 c5bd 33fb 26be cf67 e3bc
000003d0: bc12 c0bc 7f6b b1bc 1d54 9cbd 25ac 53bd
000003e0: 4c88 3dbd ea31 02bc f711 91bc cde0 c6bc
000003f0: 08cb dcbd 383f 46bd 0b33 913d 40b8 a33d
-0.011992201 -0.013570002 -0.015292592 -0.011814086 -0.015619005 -0.015230229 -0.010644262 -0.015066618
-0.014831141 -0.0028383706 0.00078613556 -0.002199749 -0.0012617572 0.0021988011 9.5011135e-05 -0.004568668
-0.00087311026 -0.0022758446 0.063780524 -0.10854531 0.16225728 -0.107306086 0.20627756 -0.00049357215
0.16142483 -0.15152064 -0.11326886 -0.061154783 0.104303524 -0.21368833 -0.14834742 -0.06762246
0.14888807 0.1883428 -0.02549069 -0.040861767 -0.0039277077 -0.00052540546 -0.0047400193 -0.0036103514
0.0002687111 -0.0035166608 -0.008354345 -0.0042857267 -0.00755704 0.12678468 0.02447321 0.10981054
0.10244092 0.010893079 0.06348161 0.13302039 0.026954709 0.13112156 0.18772751 0.0047285305
0.21179326 0.17937018 -0.20472445 0.17742789 0.13315122 -0.09708063 -0.068685345 -0.003017578
-0.0025725104 -0.004213857 -0.001461495 -0.0011200815 -0.0026296608 -0.0013907944 -0.0013509799 -0.0028440857
0.0083653955 -0.0036103027 -0.019237006 0.00756639 -0.0046347855 -0.018790156 0.003080977 -0.00927654
-0.022444438 0.102126665 0.0023937968 -0.20406379 0.23598863 -0.20098153 0.1630681 -0.11789035
-0.044802524 0.25105208 0.028090654 -0.14047326 0.16295016 0.046118375 0.12696739 -0.097517535
-0.1343641 0.06811048 0.14572987 -0.021491969 -0.04030153 -0.049680203 0.0040021003 -0.021904578
-0.05793033 -0.0031941545 -0.024839759 -0.04205679 0.14853011 -0.17139573 0.12628807 0.1662974
0.101464346 0.23262171 0.16598293 0.07447682 0.2545124 0.053363245 0.124110706 0.17076778
-0.1109963 -0.15440407 0.17101018 0.064857535 -0.015529179 0.13384694 -8.102e-41 8.949e-42
-9.5183e-41 -7.5474e-41 -5.4998e-41 8.7849e-41 8.5799e-41 -9.5022e-41 8.18e-43 -0.01975235
-0.068236016 -0.044228423 0.0949917 -0.019548932 0.1303661 0.025295885 0.023758823 0.004847062
0.0009936126 -0.07149828 0.040133975 0.07903159 0.046584085 0.077653326 -0.14651373 0.07215926
-0.03468221 0.035875876 0.049690086 -0.021315364 0.020208769 0.15345421 0.026001295 -0.054019656
-0.12434942 0.11092474 -0.1751063 0.019460695 0.034984775 -0.09311588 -0.18719083 -0.17051165
0.07834509 0.148523 0.04557134 -0.004855023 -0.007827637 -0.0042970264 -0.0018063657 -0.007114638
-0.003076112 0.0016900264 -0.004157342 8.024717e-05 -0.031744763 -0.20273182 0.20322177 -0.07896114
0.112788275 0.2049519 0.23452468 -0.015328865 0.027968228 -0.014803103 0.12846391 0.097846486
-0.008636324 -0.038513087 -0.04062666 -0.08317818 0.016903775 0.03689056 -0.17632148 -0.17793606
-0.032073483 0.11147386 0.19422242 0.21679336 0.015700592 -0.16239694 -0.0458204 -0.01680385
0.0047707492 0.01157628 -0.015740898 -0.011210733 0.013346348 -0.010970829 0.0049610273 0.017415896
0.030795285 0.020812875 0.041503813 0.027884701 0.017330438 0.036411434 0.05038258 0.035130244
0.060334258 -0.056516882 0.0034199776 0.009149995 -0.011649612 -0.07840845 0.03771984 0.06550774
0.056822795 0.026830386 0.12088117 -0.047400244 0.09147911 -0.052538037 0.07581866 -0.1813348
0.15149865 -0.09642067 -0.16306762 -0.02775946 -0.023446433 -0.021657703 -0.07633231 -0.05167784
-0.04627256 -0.007946471 -0.017708762 -0.024277115 -0.10780913 -0.048400134 0.07089814 0.07994127

img_conv.0.weight f4 [32, 3, 3, 3]
00000000: 30ed 05bd 82df 863c 6a92 2a3d aa10 a8bc
00000010: 9494 22bc 71ac 80bc aeae 9ebc 4413 173a
00000020: 7b47 833c 2ac9 9b3c 1d3b 7b3b e149 6c3d
00000030: 5684 8f3b 02fa 75bb 4618 a03c f600 423c
00000040: 08f4 c7bc 1a23 6c3b f0b1 6cbc a875 ae3a
00000050: 59ab 4e3c e831 efbc 158c 3ebc 9963 69bc
00000060: 7752 71bc 374c f7bc 6895 9bbc 92a4 f93b
00000070: 895f e8bb dfe9 d13b ca40 bf3c e8a3 c13b
00000080: 5e01 233c ed66 d83c ac97 013d 2ff9 283c
00000090: c5e7 1cbc bbd1 233a 4396 2c3c ae13 04bc
000000a0: 14af f8bb 421d 053d 95ad a53b 772a 8e3c
000000b0: 4b8b 1c3d c5cb a0bc 7a77 fbbc 17ea c7bc
000000c0: 9b7f 9dbc 6a7c 57bc ba96 3abd 17c6 28bd
000000d0: 541f d5bc 527d aabb 1dff dc3a 9be5 15bc
000000e0: 33c0 153b 05a2 a6bb de86 85bc 13cf aabb
000000f0: 26f7 823c 9c67 e33b 325b 8c3c fa84 c03b
00000100: 134f 98bb 695f d93b 5aa5 9739 5f17 2bbc
00000110: 2c50 dc39 70ac ae3c cfcf 533c 7875 ba3c
00000120: 2227 ab3b 21f0 42bb 2622 cb3b e168 f33a
00000130: 00e2 cdbb 7d57 003b 7b45 883c 4c70 403c
00000140: f82c a33c 6512 8abc bf62 9c3c 9109 f03c
00000150: f5e4 643b c9fa 173a c8e6 4ebc 761f c73c
00000160: 1c3d ea3a d869 813c faeb efbc 32a3 fcbc
00000170: aeaa 43bc 6573 2f3b 8315 6bbc 5569 9ebc
00000180: 52f6 e9bc 5340 75bc 2d82 25bd e4c1 713c
00000190: 0950 983c 4a44 743d 4136 b0bc 2df9 45bc
000001a0: 1842 36bc b6aa adbb 5d40 013d 9777 403d
000001b0: 01c4 39bc 9f74 023c 2e97 a13b 76ec 0abc
000001c0: 0fed 873b ab52 db3c 61b3 c1bb 5447 b43c
000001d0: 9342 20bc 6385 06bd eeca 20bc cf08 3abd
000001e0: 58a4 cbbc da32 04bb 6235 32bd 729c 55bc
000001f0: ae36 18bc 9b99 a9bc a96f 003c 14f3 c73c
00000200: 7dd7 803c e6fe 6d3b 45d2 043d 9c4f 6a3d
00000210: b2fb 73bc 0e87 27bc 4458 51bb cfce 063b
00000220: 635d ce3b b0e3 353c b400 fb3a 8901 b13b
00000230: f05c 1e3c 9f16 1d3b 0777 a63b 84e8 113c
00000240: 76d0 593a 721a a13b b610 273c e872 353a
00000250: 981f 863b 87cf 0e3c cba4 8c3a 7b89 6f3b
00000260: 3c21 003c 53ba 7c3c 44f7 893c ac10 b03c
00000270: f107 523c 9455 523c 435e 873c 012d 793c
00000280: 8e67 653c 82ff 883c abe8 9e3c 642a 573b
00000290: 73ca 2d3c b08c 55bd d94f 2e3b eb43 3fbd
000002a0: 0c78 023c e0ee 37bc 782b a8bc d13f 4ebc
000002b0: 4403 30ba 7219 d9bc eb68 a0bc b5df 18bd
000002c0: 5133 893b 8394 103c 4a51 5cbc bcea e2bc
000002d0: 41f6 663d 04c9 6a3b 9641 f0bb 11b6 b33d
000002e0: 6e9c b4bc 85d5 56bc 2f0d 7b3d 6404 293d
000002f0: da4a 053c e712 5a3c 4388 debc 9020 013c
00000300: 4788 e13a 7d8c 2cbc 1614 3a3c d564 b93b
00000310: 1fb2 f73a c004 333c d579 b1bc bc80 13bd
00000320: 17e6 7cbb 563d 35bc 42c2 69bc d8fb a7bb
00000330: 229f 6cbc 611e bfbc 9475 0bbd 6db5 853c
00000340: acf6 063c ca75 bf3c a347 953c 91d4 853c
00000350: 4419 aa3c 93f5 733d 9f8f 833c 616b f13c
00000360: e067 063c 0545 a03b 1d5c a1bc eb5d 1a3b
00000370: 7655 b337 f321 083c 9001 753c eae0 a9ba
00000380: edaf d53b 783a 663c 7d87 e93b 70c9 dbbc
00000390: bd30 023c 6752 e63c b9bf 3bbd 1660 c63c
000003a0: 8886 d73b c64b fe3a e0df 89bc 91d3 05bc
000003b0: 566f e5bc 7472 57bc 32b2 2ab8 7ddc f5bc
000003c0: 007c ae3c 6db2 bcbc 9135 b3bb c68b 363c
000003d0: 4a44 97bb f2ac 893b eb9f be3a 536b 49bc
000003e0: a49e d8ba c12c 7e3c 141c 943b 411c 753c
000003f0: 65e2 a63c 2dcb dd3b d0a5 863c 1a71 383c
-0.032696903 0.016463999 0.041643538 -0.020515759 -0.009923119 -0.015707226 -0.019370403 0.00057630637
0.016025295 0.019016821 0.0038334795 0.057687644 0.0043797893 -0.003753305 0.019542824 0.011841049
-0.024408355 0.0036031664 -0.0144467205 0.0013310211 0.012614095 -0.029198602 -0.011630078 -0.014244937
-0.014729134 -0.03018771 -0.01899214 0.0076184953 -0.007091467 0.0064060534 0.023346324 0.0059094317
0.009949056 0.026416266 0.031638786 0.010313316 -0.009576743 0.0006249209 0.010533872 -0.008061333
-0.0075892303 0.032498606 0.005056093 0.017354233 0.038218778 -0.019628415 -0.03069662 -0.024403615
-0.019225886 -0.013152221 -0.0455539 -0.04120454 -0.026015915 -0.0052029276 0.0016860698 -0.0091489805
0.0022850155 -0.005085232 -0.016299661 -0.0052126735 0.01598699 0.0069398414 0.017133329 0.005875227
-0.0046480983 0.006633688 0.0002892416 -0.010442584 0.00042021403 0.021322459 0.012927963 0.022761092
0.005223171 -0.0029745179 0.006199139 0.0018570685 -0.006283045 0.0019583397 0.016634693 0.011745524
0.019918904 -0.016854474 0.019090055 0.029301437 0.0034926508 0.0005797563 -0.012628265 0.024306994
0.0017870995 0.01579754 -0.029287327 -0.030839536 -0.011942549 0.0026771661 -0.0143483905 -0.019337336
-0.028559837 -0.014968949 -0.04040735 0.0147557 0.018592851 0.059635438 -0.021510245 -0.012083334
-0.011124156 -0.0052998913 0.031555522 0.04698905 -0.011338235 0.007962375 0.004931352 -0.008479228
0.0041481326 0.026772818 -0.005911276 0.022006668 -0.0097814975 -0.03284205 -0.009814007 -0.045418557
-0.024858639 -0.0020171911 -0.04350794 -0.013037788 -0.00929038 -0.020703128 0.007839122 0.0244079
0.015727753 0.0036315261 0.03242709 0.057204828 -0.014891552 -0.010225071 -0.003194348 0.0020570045
0.0062977537 0.011101648 0.001914999 0.0054017943 0.009665713 0.0023969782 0.005080107 0.008905534
0.0008308956 0.0049164826 0.010196855 0.00069217244 0.0040931217 0.008716471 0.0010730264 0.003655045
0.007820424 0.0154252825 0.016841538 0.021492325 0.012819276 0.012837786 0.01652444 0.015208484
0.01400174 0.016723398 0.019398054 0.0032831663 0.01060735 -0.052136123 0.0026597886 -0.04669563
0.007963192 -0.011226386 -0.02052854 -0.012588457 -0.0006714354 -0.026501391 -0.019581279 -0.03732272
0.0041870256 0.00882447 -0.013447115 -0.02769982 0.05638719 0.003582538 -0.007332037 0.08774961
-0.022047248 -0.01311243 0.06129187 0.041263953 0.008135522 0.013310171 -0.027164584 0.007881299
0.0017206752 -0.010531542 0.011357328 0.005657772 0.0018897689 0.010926425 -0.02166454 -0.036011443
-0.0038589293 -0.011061987 -0.014267506 -0.0051264577 -0.014442237 -0.023329915 -0.034047678 0.016321862
0.008237522 0.023371596 0.018222636 0.016336711 0.020764 0.05956037 0.016059695 0.029470148
0.008203477 0.0048910403 -0.019697243 0.0023554515 2.1378259e-05 0.008308875 0.014953986 -0.0012960706
0.006521216 0.014052026 0.007126747 -0.026829451 0.00794619 0.028115464 -0.045837138 0.02421574
0.0065773167 0.0019401244 -0.016830385 -0.008168117 -0.02800719 -0.013149846 -4.0697116e-05 -0.030012364
0.021299362 -0.023034299 -0.005469032 0.011141723 -0.004616295 0.004201525 0.0014543509 -0.0122936545
-0.0016526771 0.0155136 0.0045199487 0.01496035 0.020371625 0.006768605 0.016436487 0.011257434

img_conv.0.bias f4 [32]
00000000: a125 083e 1208 1f3e 4bf6 b3ba 4d2b 333d
00000010: 2032 dd3d 0a5b 2cb9 3c59 6c3d 4f55 833b
00000020: 91c7 d43d ad68 72ba 1382 fa3c 18b9 dcbc
00000030: 6e9f b93d 4e1d 373d c74a dd3d 8d8e 403d
00000040: 1a09 f6bb c6c0 3a3e d37f 5fba 39e8 a13d
00000050: 6f5a 63bd 51d7 283e 5985 843c 58aa b33d
00000060: f022 3dbc 14ae 303b 1396 0c3e e9ad 243c
00000070: 47c1 263b cc94 523a cf3a c13c 0e39 023e
0.13295604 0.15530422 -0.0013730017 0.043742467 0.10800576 -0.00016437113 0.057702288 0.0040079723
0.10389627 -0.0009247165 0.030579602 -0.026943728 0.09063612 0.04470568 0.10805278 0.047010947
-0.007508409 0.182376 -0.0008525822 0.07905621 -0.055506166 0.16488387 0.016176866 0.08772725
-0.011543974 0.0026959227 0.13729124 0.010051229 0.0025444792 0.0008033037 0.023587612 0.12717077
